NLBpegWeights.npy (npy, 408 bytes, 1 tensors)

array f8 [35]
0	0x3ffb54d7b65ed043	1.70821353186058
1	0xbfc4fc45e3fffa30	-0.1639487612992112
2	0x3fdc04dc050807e5	0.43779659739823124
3	0x4000606a40e25be6	2.0470776623801497
4	0x3ff5227269f42f74	1.3209098948309164
5	0x3fe6b821ed622050	0.7099771152870833
6	0xbff039913b4d489c	-1.0140545193176314
7	0xbfaa2fa55872b9e6	-0.05114475922288246
8	0x3fda7a6f1e2811e0	0.4137227816102307
9	0xbffaa40c80430c76	-1.6650509844046417
10	0xbffa615efe4c0e4b	-1.648772233341236
11	0x4007d5386919e34e	2.9791115008378375
12	0xbff148563895f4e7	-1.080160351789624
13	0xbff5f79f365acdc2	-1.372954571078353
14	0x3fc4b9104e00f6e3	0.16189769562509246
15	0xbfebf7c2122ad00e	-0.8739939074353076
16	0xbfd6e7f5cadfbb18	-0.357907722586718
17	0x3ffc6e2f1557e2ce	1.7769003709528763
18	0xbff2393af856d3e5	-1.138972253870855
19	0xbff244cf8bdd196b	-1.1417994941162657
20	0x3feb5e6397a23ada	0.8552720986934574
21	0xc007e879c01d26b9	-2.9885134705444583
22	0x4002158d998aab79	2.2605239863818807
23	0xc002bb87114a5097	-2.3415662146381453
24	0xbff2bfc3c784ee89	-1.1718175691338806
25	0xbff4c98af9a99418	-1.2992048027456402
26	0x400823cce22de341	3.017480628037817
27	0xc00432be253b9183	-2.5247767361453852
28	0xbff4953711151e0c	-1.2864294688496356
29	0xc00c4972f387fdee	-3.5358637834431113
30	0xbffa0ead7c4b6c76	-1.6285834174402942
31	0x3fe47defdce20bd6	0.6403731645699462
32	0x400e283ff4b16a86	3.769653236069021
33	0x3fcb9a3c6decb3b5	0.21564441077626176
34	0xbff039913b4d489c	-1.0140545193176314
