NLBthrowWeights.npy (npy, 560 bytes, 1 tensors)

array f8 [54]
0	0xc0037a6d52489841	-2.4347788265613706
1	0x402179e73fc3fa8c	8.738092415497952
2	0xc010510a34c7228b	-4.079140495924217
3	0x40110342c40119b3	4.253184378211176
4	0x400f0c893d76befa	3.8811211397040752
5	0xbff925e9891d4962	-1.5717559200316704
6	0x400e465833f058c3	3.7843479211543083
7	0x3fd88da0f3166ea1	0.38364433039689955
8	0xbfd2d687037d67b2	-0.2943437131958674
9	0x401d75532e11898b	7.364575118847266
10	0xc011ddf45e0042f1	-4.466752499357185
11	0xc0106115376af672	-4.094807496932491
12	0xbff3ce01072a706e	-1.2377939491189198
13	0x4023b9ca416c191b	9.862871212430539
14	0xbfa03d5eb5b84765	-0.03171821563968428
15	0xbff8b03a0523625d	-1.5430240822517114
16	0xc0257220f6a41a87	-10.722907741100483
17	0x400e860d9610acde	3.81545560110463
18	0x402673660398ff5f	11.225387680460413
19	0xc0193542af5adf87	-6.302012195512254
20	0x4020901cc2d88c66	8.281469429906974
21	0x40003369a9e5cc5e	2.0251038811925772
22	0x3fde4fcff8430d3e	0.4736213612015553
23	0x3ffbaf7ebb1a0e3e	1.7303454693473124
24	0x4012093cfc4a5a93	4.5090217037565195
25	0xc0004c308a851434	-2.0372019597876037
26	0x4028f53163bb9fbd	12.478892437604253
27	0xc018a51515788c0d	-6.161213241083726
28	0xc0132814aa9b4ed2	-4.789141336182825
29	0x3fdfb8809fc3e808	0.4956361351211176
30	0x4004f73d845d7a76	2.620722803213819
31	0xc0034038acad9f31	-2.406358098076361
32	0x3ff0f56a7dc67338	1.059916011151655
33	0x400af73d2b26524e	3.3707221385068697
34	0xc009bde01ce8d3f6	-3.2177126177361925
35	0xc00413095cb8a238	-2.509295200714657
36	0x3fef3de1525e2030	0.9763037308448528
37	0x402201fdab43086c	9.003888465817191
38	0xc0090f632ade7f25	-3.1325133656645385
39	0xc0274a5eee85ef69	-11.645255521630775
40	0x3fecf642e4debcc8	0.9050611944311635
41	0x402233ec5fb41b73	9.101412764297242
42	0x401614615fc32fc5	5.5199027026064345
43	0x4004d0af42ecd4bd	2.601896784641751
44	0xc014529d516ea76a	-5.080678245905668
45	0x3ff23aa185569a07	1.1393141945387713
46	0x3ff76ec8c4d75bd9	1.4645469369040625
47	0xc02a97f31b20f723	-13.296776626371473
48	0xc02d654f6ba2f0b2	-14.697871554985202
49	0x40207ba4e8401831	8.2414925173035
50	0x4009d468edbe6126	3.2287157605861863
51	0xc02daf41a923e812	-14.842297826417084
52	0x401caff1adb47ccd	7.1718203679476575
53	0xbfd2d687037d67b2	-0.2943437131958674
