models/linear_b/nlb_throw_weights_old.npy (npy, 560 bytes, 1 tensors)

array f8 [54]
1.4836745943830352 8.345318796820255 -0.0906122214127711 9.79722176396123 5.860370249395648 5.734829125844132 5.718545476050563 2.2218580824614493
-2.532174148277065 11.033927110718643 -5.136087386550809 -3.5972997208774817 -0.81686540890731 7.449390823731017 3.1826871343271783 -1.3824517122413578
-7.765951651433797 4.533233335496363 11.799078963490789 -6.691730613725727 8.374057833606 3.11152753802706 0.4502788333198242 -1.1533380795923383
5.936850505065705 0.05368081962064176 11.65740387631212 -1.458985763121625 -7.318254232925584 3.4018987084403447 10.996878584512732 -7.171135281440317
-1.6290825396366724 3.6990151023841666 2.6177061205631253 -1.3000355502432146 -2.7425433166284705 11.222094510269766 -5.490005763757389 -11.935541888192898
1.6402109683082442 10.691386641890189 5.4643145273900435 -1.7543894338872765 2.2185822896604552 1.7479405783703676 0.12809528950506163 -10.28270228241107
-15.156589844758651 8.435808100548668 0.3596872196182225 -11.80635983498231 9.145230348403055 -2.532174148277065
00000000: cd7f 4c92 21bd f73f fa12 16a0 cdb0 2040
00000010: 8df4 95cf 5c32 b7bf efbe 7773 2d98 2340
00000020: 356c 0ee6 0471 1740 6398 de0b 77f0 1640
00000030: be4d a162 cadf 1640 9a33 c487 5dc6 0140
00000040: 6103 1585 e441 04c0 fcf7 ede4 5e11 2640
00000050: 0c89 ea7d 5a8b 14c0 34a1 7813 45c7 0cc0
00000060: b2b2 0fed c223 eabf 5a30 ac1b 2dcc 1d40
00000070: 78ae 1aac 2476 0940 6b03 c6af 851e f6bf
00000080: c2e6 34a1 5510 1fc0 2160 64eb 0722 1240
00000090: a23a bee0 2099 2740 4360 ae07 55c4 1ac0
000000a0: ff4c 2482 84bf 2040 dc6f c38c 68e4 0840
000000b0: b823 cc4f 5ed1 dc3f e249 51a1 1274 f2bf
000000c0: 3ffe 21bd 55bf 1740 21e2 6269 0d7c ab3f
000000d0: 620c aa3d 9750 2740 e1fd 9e74 0158 f7bf
000000e0: 72ea 0870 e445 1dc0 8672 88ab 1637 0b40
000000f0: 4221 adde 66fe 2540 63e9 5316 3eaf 1cc0
00000100: 0b96 63da b810 fabf 6133 e13a 9597 0d40
00000110: 7bdc 12e8 0ff1 0440 5be9 be13 f2cc f4bf
00000120: e042 e68c baf0 05c0 a675 245f b671 2640
00000130: 09c2 2812 c4f5 15c0 36a7 ab58 ffde 27c0
00000140: 59ca 36db 4d3e fa3f 879e 0f6e fd61 2540
00000150: afca 7844 75db 1540 a2e6 afa7 fa11 fcbf
00000160: 949c 4c12 a8bf 0140 9d3b 378a 90f7 fb3f
00000170: fb12 992b 6d65 c03f 92eb 825a be90 24c0
00000180: 8d3f 4c8b 2c50 2ec0 7760 463d 22df 2040
00000190: f229 438b 1d05 d73f 2c1d 4032 db9c 27c0
000001a0: 3d8e d9a1 5b4a 2240 6103 1585 e441 04c0
