models/linear_b/nlb_throw_weights_new.npy (npy, 560 bytes, 1 tensors)

array f8 [54]
1.639149189588561 9.915055570670438 1.2365582453330703 4.073347376420857 5.479991791391018 3.134294861050625 4.107703727710432 4.142120001860892
-4.022047648420013 11.066244631307807 -4.412445425616663 -3.576554267948934 -1.43809574815362 9.221448127534227 0.17582119150485265 -1.6708557015133658
-6.087264427937102 5.2139447637464995 12.501490367961395 -7.811093059747532 9.63710368807321 2.1918841702886187 0.4736213612015553 2.6552447966537605
4.594305242526529 -2.4642209622640845 17.782263420240973 -5.1580578472114365 -2.3860462129288855 4.2184178113811575 1.5402392458387508 -2.1360525989579897
-1.070798345675478 1.0323972837126805 -3.5472942935029 -1.7335655030369437 1.583075386731253 7.771131786229446 -5.7009731042269545 -11.881444438484097
1.8418755045376491 8.914225924213113 6.60533480112429 -3.1676479671544397 -1.1330710629606544 0.6472457976789027 1.7782446217947225 -12.8876493878225
-14.427041300659315 8.973273306477708 3.3161115690674667 -13.214732727535822 8.71713813748945 -4.022047648420013
00000000: aec3 2880 f439 fa3f b31a ec29 82d4 2340
00000010: fadf 744c f1c8 f33f 62e6 1b93 1b4b 1040
00000020: d37d d9f7 82eb 1540 ccdd 212f 0913 0940
00000030: c3b1 d0e2 496e 1040 6466 e0e7 8791 1040
00000040: b0ab a3a8 9316 10c0 5601 fad0 ea21 2640
00000050: 2ba2 f917 58a6 11c0 dcad e97b c89c 0cc0
00000060: 1a62 edaf 7002 f7bf 360a 23a6 6171 2240
00000070: 1882 ba0d 4f81 c63f 575c 2530 d3bb fabf
00000080: 4260 a0d8 5b59 18c0 43c4 0d56 14db 1440
00000090: 704e 7358 c300 2940 4d83 d62d 8f3e 1fc0
000000a0: f0de 6074 3246 2340 e413 6091 fa88 0140
000000b0: 3e0d 43f8 cf4f de3f 3e04 e4fb f03d 0540
000000c0: 9ef8 b18d 9160 1240 cc55 d87a b9b6 03c0
000000d0: c6ca 5e6a 42c8 3140 de98 92ea d9a1 14c0
000000e0: 9831 9a65 9f16 03c0 dffb 32eb a8df 1040
000000f0: 4c4a 4ee8 d1a4 f83f a37b b8be a216 01c0
00000100: e297 3472 fd21 f1bf 3467 a003 b384 f03f
00000110: 1e0f 9fd4 db60 0cc0 8647 502e afbc fbbf
00000120: 03d0 51db 4654 f93f cf0b 2b92 a315 1f40
00000130: 191f b8e4 cbcd 16c0 810f 79af 4cc3 27c0
00000140: e9ae f472 5278 fd3f 284d 9b6b 15d4 2140
00000150: 84d6 d7e2 dc6b 1a40 865a 41d1 5757 09c0
00000160: 075c 771f 0f21 f2bf 6323 b0d1 3cb6 e43f
00000170: ed56 eea1 b073 fc3f 2c06 06fb 79c6 29c0
00000180: 02bf 4828 a5da 2cc0 78c8 fae0 50f2 2140
00000190: 9141 9880 6587 0a40 624b b472 f16d 2ac0
000001a0: 8c76 deba 2c6f 2140 b0ab a3a8 9316 10c0
