models/linear_b/nlb_peg_weights_new.npy (npy, 408 bytes, 1 tensors)

array f8 [35]
000000 80 66 99 e8 c6 17 f3 3f d6 ff fa ff c0 a1 f6 3f
       1.1933049283892672 1.4144906996952975
000010 c2 3f ed e5 8c bd e9 3f 9c a2 c8 5d bc 58 f1 3f
       0.8043884745366017 1.0841640151431085
000020 12 22 26 42 ca 78 d9 3f 84 2a 12 3c d4 62 04 c0
       0.3979974409089958 -2.5482563679736945
000030 40 15 a5 9d 79 0c e8 3f 48 27 40 55 e5 9f ed 3f
       0.751522834682568 0.9257685341883439
000040 7f 55 9c 2c e2 b2 e6 3f 2e e8 97 b3 0f cd 01 c0
       0.7093363639166198 -2.225127604554493
000050 8d 19 ff 41 11 cc 06 c0 1f 27 19 0b 7d a8 00 40
       -2.849642291638878 2.0822697512675314
000060 39 3b 64 e3 78 87 f5 bf 8c 3c 2e 65 7a 4f f7 bf
       -1.3455742723924244 -1.4569038345687515
000070 99 de 9d d6 85 97 e3 3f a3 a0 0a a2 e8 17 f0 bf
       0.6122464362842549 -1.005837090468085
000080 26 de 82 a2 03 2b d9 bf ce 9b 4e 4f 59 7f 03 40
       -0.39325037832483856 2.437182063661999
000090 2c e4 cc bb d7 87 f3 3f a2 de 0f 62 f9 42 e6 bf
       1.220664723963874 -0.6956755557320842
0000a0 6b 06 7c 14 39 39 ef 3f c1 8f 71 12 b2 d4 f9 bf
       0.9757352256858217 -1.6144276352360836
0000b0 69 bf b9 97 bd 34 0a 40 b8 98 75 49 c1 d1 06 c0
       3.275752244335241 -2.8524194468510267
0000c0 d2 5d 67 fc a1 8f e9 bf 02 d8 ec 5f e7 54 f1 bf
       -0.7987832956086385 -1.0832284686161988
0000d0 bf 3c 61 a1 74 62 ff 3f 94 f7 4d f7 aa 1f 0d c0
       1.96153700865743 -3.640462810580127
0000e0 d0 ce bd d8 05 32 da bf c6 b4 03 29 01 16 07 c0
       -0.4093031517615886 -2.8857444004303003
0000f0 81 79 cc d5 44 26 f8 bf 45 75 ed 13 98 20 f4 3f
       -1.5093429900658466 1.2579575327320793
000100 89 20 f7 64 69 87 08 40 85 0a 6f 80 06 f2 d9 3f
       3.06611899260685 0.4053970579372293
000110 40 15 a5 9d 79 0c e8 3f
       0.751522834682568
