models/linear_b/nlb_peg_weights_old.npy (npy, 408 bytes, 1 tensors)

array f8 [35]
000000 bf 42 d2 b2 54 2d e5 3f 34 1c 2d b9 d6 1d f1 3f
       0.6617835514644738 1.0697848542638555
000010 36 9f aa 99 d3 24 fa 3f d9 a9 f1 50 62 8d 00 40
       1.633990860233053 2.069035179495796
000020 c6 7f 8e 8f 6c 6c fd 3f fe d4 6f 52 29 17 c0 3f
       1.8389707191163196 0.12570683026539337
000030 ac c7 75 93 84 50 c8 bf 02 74 0d d7 36 09 f7 3f
       -0.18995721054267045 1.4397495651712693
000040 26 5d 9c c7 ca 8e cf bf c2 0b f3 4b 4d 84 01 c0
       -0.24654516932125964 -2.189600556711839
000050 55 2b f7 d1 6d 33 02 c0 c5 0f 03 f2 05 8e f8 3f
       -2.2751118091158937 1.5346736386863864
000060 2f ba bf 86 b5 1a f5 bf 45 dc 9f 9d b1 84 fd bf
       -1.3190207732801686 -1.8448959500508562
000070 37 a6 d3 6b 01 ab dd 3f 3c 9a 4c 9e c9 7c d6 bf
       0.46356235055882017 -0.3513664289370444
000080 d4 c3 22 70 31 5f c0 3f 32 9a 9f f4 13 30 02 40
       0.12790506339436425 2.273475562210728
000090 99 a5 cc db d1 6f ba 3f 31 c5 23 3a 20 65 00 c0
       0.10326873413273176 -2.0493778745809768
0000a0 0e 82 ca ad e4 58 e0 3f 48 26 0c 40 d9 a7 0f c0
       0.5108512300831209 -3.9569573405940766
0000b0 f8 ef 88 04 54 1e f9 3f 5f d5 f0 2e b7 d8 0b c0
       1.5699043442864404 -3.480818144535689
0000c0 10 c2 9c 33 f7 81 e7 bf 16 2a bb 60 56 94 e4 bf
       -0.7346149452260438 -0.64310759442134
0000d0 66 bd 32 98 6c 8c 01 40 28 f2 6e ba ee ca fe bf
       2.193566502617318 -1.9245440752557759
0000e0 ef 07 e5 a8 b4 84 dd bf 08 51 a3 67 a9 18 03 c0
       -0.4612247132646407 -2.3870418640818833
0000f0 85 07 24 3e 4b e4 ff bf ab bb 6e 65 00 c0 f0 3f
       -1.9932358195660254 1.0468753778656985
000100 51 eb ef 05 d5 8b dc 3f 82 e6 e1 52 3d 9b c5 3f
       0.4460346754055325 0.16880003497117363
000110 ac c7 75 93 84 50 c8 bf
       -0.18995721054267045
